…
lots_', model_path=None, epoch_save_checkpoint=5, split_percentage=0.01, patience=50, transforms='posterize', pred_model='./checkpoint_model.pth')
2021-12-14 17:32:47,030 root         INFO     color transforms added - posterize,
2021-12-14 17:32:47,060 root         INFO     Settings for Cuda
2021-12-14 17:32:47,061 root         INFO     Training Segnet
2021-12-14 17:32:47,061 root         INFO     Generating DataLoader
2021-12-14 17:32:47,062 root         INFO     Training 1st Model
2021-12-14 17:32:49,953 root         INFO     SegNet(
  (torch_vgg16): VGG(
    (features): Sequential(
      (0): Conv2d(3, 64, kernel_size=(3, 3), stride=(1, 1), padding=(1, 1))
      (1): ReLU(inplace=True)
      (2): Conv2d(64, 64, kernel_size=(3, 3), stride=(1, 1), padding=(1, 1))
      (3): ReLU(inplace=True)
      (4): MaxPool2d(kernel_size=2, stride=2, padding=0, dilation=1, ceil_mode=False)
      (5): Conv2d(64, 128, kernel_size=(3, 3), stride=(1, 1), padding=(1, 1))
      (6): ReLU(inplace=True)
      (7): Conv2d(128, 128, kernel_size=(3, 3), stride=(1, 1), padding=(1, 1))
      (8): ReLU(inplace=True)
      (9): MaxPool2d(kernel_size=2, stride=2, padding=0, dilation=1, ceil_mode=False)
      (10): Conv2d(128, 256, kernel_size=(3, 3), stride=(1, 1), padding=(1, 1))
      (11): ReLU(inplace=True)
      (12): Conv2d(256, 256, kernel_size=(3, 3), stride=(1, 1), padding=(1, 1))
      (13): ReLU(inplace=True)
      (14): Conv2d(256, 256, kernel_size=(3, 3), stride=(1, 1), padding=(1, 1))
      (15): ReLU(inplace=True)
      (16): MaxPool2d(kernel_size=2, stride=2, padding=0, dilation=1, ceil_mode=False)
      (17): Conv2d(256, 512, kernel_size=(3, 3), stride=(1, 1), padding=(1, 1))
      (18): ReLU(inplace=True)
      (19): Conv2d(512, 512, kernel_size=(3, 3), stride=(1, 1), padding=(1, 1))
      (20): ReLU(inplace=True)
      (21): Conv2d(512, 512, kernel_size=(3, 3), stride=(1, 1), padding=(1, 1))
      (22): ReLU(inplace=True)
      (23): MaxPool2d(kernel_size=2, stride=2, padding=0, dilation=1, ceil_mode=False)
      (24): Conv2d(512, 512, kernel_size=(3, 3), stride=(1, 1), padding=(1, 1))
      (25): ReLU(inplace=True)
      (26): Conv2d(512, 512, kernel_size=(3, 3), stride=(1, 1), padding=(1, 1))
      (27): ReLU(inplace=True)
      (28): Conv2d(512, 512, kernel_size=(3, 3), stride=(1, 1), padding=(1, 1))
      (29): ReLU(inplace=True)
      (30): MaxPool2d(kernel_size=2, stride=2, padding=0, dilation=1, ceil_mode=False)
    )
    (avgpool): AdaptiveAvgPool2d(output_size=(7, 7))
    (classifier): Sequential(
      (0): Linear(in_features=25088, out_features=4096, bias=True)
      (1): ReLU(inplace=True)
      (2): Dropout(p=0.5, inplace=False)
      (3): Linear(in_features=4096, out_features=4096, bias=True)
      (4): ReLU(inplace=True)
      (5): Dropout(p=0.5, inplace=False)
      (6): Linear(in_features=4096, out_features=1000, bias=True)
    )
  )
  (encoder_stage_1_conv1): Conv2d(3, 64, kernel_size=(3, 3), stride=(1, 1), padding=(1, 1))
  (encoder_stage_1_conv2): Conv2d(64, 64, kernel_size=(3, 3), stride=(1, 1), padding=(1, 1))
  (encoder_stage_2_conv1): Conv2d(64, 128, kernel_size=(3, 3), stride=(1, 1), padding=(1, 1))
  (encoder_stage_2_conv2): Conv2d(128, 128, kernel_size=(3, 3), stride=(1, 1), padding=(1, 1))
  (encoder_stage_3_conv1): Conv2d(128, 256, kernel_size=(3, 3), stride=(1, 1), padding=(1, 1))
  (encoder_stage_3_conv2): Conv2d(256, 256, kernel_size=(3, 3), stride=(1, 1), padding=(1, 1))
  (encoder_stage_3_conv3): Conv2d(256, 256, kernel_size=(3, 3), stride=(1, 1), padding=(1, 1))
  (encoder_stage_4_conv1): Conv2d(256, 512, kernel_size=(3, 3), stride=(1, 1), padding=(1, 1))
  (encoder_stage_4_conv2): Conv2d(512, 512, kernel_size=(3, 3), stride=(1, 1), padding=(1, 1))
  (encoder_stage_4_conv3): Conv2d(512, 512, kernel_size=(3, 3), stride=(1, 1), padding=(1, 1))
  (encoder_stage_5_conv1): Conv2d(512, 512, kernel_size=(3, 3), stride=(1, 1), padding=(1, 1))
  (encoder_stage_5_conv2): Conv2d(512, 512, kernel_size=(3, 3), stride=(1, 1), padding=(1, 1))
  (encoder_stage_5_conv3): Conv2d(512, 512, kernel_size=(3, 3), stride=(1, 1), padding=(1, 1))
  (encoder_stage_1_batch_normalization1): BatchNorm2d(64, eps=1e-05, momentum=0.5, affine=True, track_running_stats=True)
  (encoder_stage_2_batch_normalization1): BatchNorm2d(128, eps=1e-05, momentum=0.5, affine=True, track_running_stats=True)
  (encoder_stage_3_batch_normalization1): BatchNorm2d(256, eps=1e-05, momentum=0.5, affine=True, track_running_stats=True)
  (encoder_stage_4_batch_normalization1): BatchNorm2d(512, eps=1e-05, momentum=0.5, affine=True, track_running_stats=True)
  (encoder_stage_5_batch_normalization1): BatchNorm2d(512, eps=1e-05, momentum=0.5, affine=True, track_running_stats=True)
  (encoder_stage_1_batch_normalization2): BatchNorm2d(64, eps=1e-05, momentum=0.5, affine=True, track_running_stats=True)
  (encoder_stage_2_batch_normalization2): BatchNorm2d(128, eps=1e-05, momentum=0.5, affine=True, track_running_stats=True)
  (encoder_stage_3_batch_normalization2): BatchNorm2d(256, eps=1e-05, momentum=0.5, affine=True, track_running_stats=True)
  (encoder_stage_4_batch_normalization2): BatchNorm2d(512, eps=1e-05, momentum=0.5, affine=True, track_running_stats=True)
  (encoder_stage_5_batch_normalization2): BatchNorm2d(512, eps=1e-05, momentum=0.5, affine=True, track_running_stats=True)
  (encoder_stage_3_batch_normalization3): BatchNorm2d(256, eps=1e-05, momentum=0.5, affine=True, track_running_stats=True)
  (encoder_stage_4_batch_normalization3): BatchNorm2d(512, eps=1e-05, momentum=0.5, affine=True, track_running_stats=True)
  (encoder_stage_5_batch_normalization3): BatchNorm2d(512, eps=1e-05, momentum=0.5, affine=True, track_running_stats=True)
  (relu): ReLU()
  (encoder_max_pool): MaxPool2d(kernel_size=2, stride=2, padding=0, dilation=1, ceil_mode=False)
  (decoder_unpool): MaxUnpool2d(kernel_size=(2, 2), stride=(2, 2), padding=(0, 0))
  (decoder_stage_1_conv1): Conv2d(512, 512, kernel_size=(3, 3), stride=(1, 1), padding=(1, 1))
  (decoder_stage_1_conv2): Conv2d(512, 512, kernel_size=(3, 3), stride=(1, 1), padding=(1, 1))
  (decoder_stage_1_conv3): Conv2d(512, 512, kernel_size=(3, 3), stride=(1, 1), padding=(1, 1))
  (decoder_stage_2_conv1): Conv2d(512, 512, kernel_size=(3, 3), stride=(1, 1), padding=(1, 1))
  (decoder_stage_2_conv2): Conv2d(512, 512, kernel_size=(3, 3), stride=(1, 1), padding=(1, 1))
  (decoder_stage_2_conv3): Conv2d(512, 256, kernel_size=(3, 3), stride=(1, 1), padding=(1, 1))
  (decoder_stage_3_conv1): Conv2d(256, 256, kernel_size=(3, 3), stride=(1, 1), padding=(1, 1))
  (decoder_stage_3_conv2): Conv2d(256, 256, kernel_size=(3, 3), stride=(1, 1), padding=(1, 1))
  (decoder_stage_3_conv3): Conv2d(256, 128, kernel_size=(3, 3), stride=(1, 1), padding=(1, 1))
  (decoder_stage_4_conv1): Conv2d(128, 128, kernel_size=(3, 3), stride=(1, 1), padding=(1, 1))
  (decoder_stage_4_conv2): Conv2d(128, 64, kernel_size=(3, 3), stride=(1, 1), padding=(1, 1))
  (decoder_stage_5_conv1): Conv2d(64, 64, kernel_size=(3, 3), stride=(1, 1), padding=(1, 1))
  (decoder_stage_5_conv2): Conv2d(64, 32, kernel_size=(3, 3), stride=(1, 1), padding=(1, 1))
  (decoder_stage_1_batch_normalization1): BatchNorm2d(512, eps=1e-05, momentum=0.5, affine=True, track_running_stats=True)
  (decoder_stage_2_batch_normalization1): BatchNorm2d(512, eps=1e-05, momentum=0.5, affine=True, track_running_stats=True)
  (decoder_stage_3_batch_normalization1): BatchNorm2d(256, eps=1e-05, momentum=0.5, affine=True, track_running_stats=True)
  (decoder_stage_4_batch_normalization1): BatchNorm2d(128, eps=1e-05, momentum=0.5, affine=True, track_running_stats=True)
  (decoder_stage_5_batch_normalization1): BatchNorm2d(64, eps=1e-05, momentum=0.5, affine=True, track_running_stats=True)
  (decoder_stage_1_batch_normalization2): BatchNorm2d(512, eps=1e-05, momentum=0.5, affine=True, track_running_stats=True)
  (decoder_stage_2_batch_normalization2): BatchNorm2d(512, eps=1e-05, momentum=0.5, affine=True, track_running_stats=True)
  (decoder_stage_3_batch_normalization2): BatchNorm2d(256, eps=1e-05, momentum=0.5, affine=True, track_running_stats=True)
  (decoder_stage_4_batch_normalization2): BatchNorm2d(64, eps=1e-05, momentum=0.5, affine=True, track_running_stats=True)
  (decoder_stage_1_batch_normalization3): BatchNorm2d(512, eps=1e-05, momentum=0.5, affine=True, track_running_stats=True)
  (decoder_stage_2_batch_normalization3): BatchNorm2d(256, eps=1e-05, momentum=0.5, affine=True, track_running_stats=True)
  (decoder_stage_3_batch_normalization3): BatchNorm2d(128, eps=1e-05, momentum=0.5, affine=True, track_running_stats=True)
)
2021-12-14 17:32:49,954 root         INFO     Epoch 1
2021-12-14 17:32:53,593 root         INFO     Epoch: 1 	 iteration: 0 	 Training Loss Current:3.5234 Average:(3.5234)
2021-12-14 17:33:40,222 root         INFO     Epoch: 1 	 iteration: 50 	 Training Loss Current:1.7636 Average:(2.2262)
2021-12-14 17:34:13,321 root         INFO     Average Loss for epoch 1 is 1.9713581099633868
…
