2021-12-05 01:01:37,217 root         INFO     Namespace(gpu=True, train=True, batch_size=1, num_workers=5, num_epochs=10, num_output_classes=32, learning_rate=0.01, sgd_momentum=0.5)
2021-12-05 01:01:37,246 root         INFO     Training Segnet
2021-12-05 01:01:37,246 root         INFO     Generating DataLoader
2021-12-05 01:01:37,247 root         INFO     Training 1st Model
2021-12-05 01:01:37,389 root         INFO     Vanilla_SegNet(
  (encoder_stage_1_conv1): Conv2d(3, 64, kernel_size=(3, 3), stride=(1, 1), padding=(1, 1))
  (encoder_stage_1_conv2): Conv2d(64, 64, kernel_size=(3, 3), stride=(1, 1), padding=(1, 1))
  (encoder_stage_2_conv1): Conv2d(64, 128, kernel_size=(3, 3), stride=(1, 1), padding=(1, 1))
  (encoder_stage_2_conv2): Conv2d(128, 128, kernel_size=(3, 3), stride=(1, 1), padding=(1, 1))
  (encoder_stage_3_conv1): Conv2d(128, 256, kernel_size=(3, 3), stride=(1, 1), padding=(1, 1))
  (encoder_stage_3_conv2): Conv2d(256, 256, kernel_size=(3, 3), stride=(1, 1), padding=(1, 1))
  (encoder_stage_4_conv1): Conv2d(256, 512, kernel_size=(3, 3), stride=(1, 1), padding=(1, 1))
  (encoder_stage_4_conv2): Conv2d(512, 512, kernel_size=(3, 3), stride=(1, 1), padding=(1, 1))
  (encoder_stage_5_conv1): Conv2d(512, 512, kernel_size=(3, 3), stride=(1, 1), padding=(1, 1))
  (encoder_stage_5_conv2): Conv2d(512, 512, kernel_size=(3, 3), stride=(1, 1), padding=(1, 1))
  (encoder_stage_1_batch_normalization1): BatchNorm2d(64, eps=1e-05, momentum=0.1, affine=True, track_running_stats=True)
  (encoder_stage_2_batch_normalization1): BatchNorm2d(128, eps=1e-05, momentum=0.1, affine=True, track_running_stats=True)
  (encoder_stage_3_batch_normalization1): BatchNorm2d(256, eps=1e-05, momentum=0.1, affine=True, track_running_stats=True)
  (encoder_stage_4_batch_normalization1): BatchNorm2d(512, eps=1e-05, momentum=0.1, affine=True, track_running_stats=True)
  (encoder_stage_5_batch_normalization1): BatchNorm2d(512, eps=1e-05, momentum=0.1, affine=True, track_running_stats=True)
  (encoder_stage_1_batch_normalization2): BatchNorm2d(64, eps=1e-05, momentum=0.1, affine=True, track_running_stats=True)
  (encoder_stage_2_batch_normalization2): BatchNorm2d(128, eps=1e-05, momentum=0.1, affine=True, track_running_stats=True)
  (encoder_stage_3_batch_normalization2): BatchNorm2d(256, eps=1e-05, momentum=0.1, affine=True, track_running_stats=True)
  (encoder_stage_4_batch_normalization2): BatchNorm2d(512, eps=1e-05, momentum=0.1, affine=True, track_running_stats=True)
  (encoder_stage_5_batch_normalization2): BatchNorm2d(512, eps=1e-05, momentum=0.1, affine=True, track_running_stats=True)
  (relu): ReLU()
  (encoder_max_pool): MaxPool2d(kernel_size=2, stride=2, padding=0, dilation=1, ceil_mode=False)
  (decoder_unpool): MaxUnpool2d(kernel_size=(2, 2), stride=(2, 2), padding=(0, 0))
  (decoder_stage_1_conv1): Conv2d(512, 512, kernel_size=(3, 3), stride=(1, 1), padding=(1, 1))
  (decoder_stage_1_conv2): Conv2d(512, 512, kernel_size=(3, 3), stride=(1, 1), padding=(1, 1))
  (decoder_stage_1_conv3): Conv2d(512, 512, kernel_size=(3, 3), stride=(1, 1), padding=(1, 1))
  (decoder_stage_2_conv1): Conv2d(512, 512, kernel_size=(3, 3), stride=(1, 1), padding=(1, 1))
  (decoder_stage_2_conv2): Conv2d(512, 512, kernel_size=(3, 3), stride=(1, 1), padding=(1, 1))
  (decoder_stage_2_conv3): Conv2d(512, 256, kernel_size=(3, 3), stride=(1, 1), padding=(1, 1))
  (decoder_stage_3_conv1): Conv2d(256, 256, kernel_size=(3, 3), stride=(1, 1), padding=(1, 1))
  (decoder_stage_3_conv2): Conv2d(256, 256, kernel_size=(3, 3), stride=(1, 1), padding=(1, 1))
  (decoder_stage_3_conv3): Conv2d(256, 128, kernel_size=(3, 3), stride=(1, 1), padding=(1, 1))
  (decoder_stage_4_conv1): Conv2d(128, 128, kernel_size=(3, 3), stride=(1, 1), padding=(1, 1))
  (decoder_stage_4_conv2): Conv2d(128, 64, kernel_size=(3, 3), stride=(1, 1), padding=(1, 1))
  (decoder_stage_5_conv1): Conv2d(64, 64, kernel_size=(3, 3), stride=(1, 1), padding=(1, 1))
  (decoder_stage_5_conv2): Conv2d(64, 32, kernel_size=(3, 3), stride=(1, 1), padding=(1, 1))
  (decoder_stage_1_batch_normalization1): BatchNorm2d(512, eps=1e-05, momentum=0.1, affine=True, track_running_stats=True)
  (decoder_stage_2_batch_normalization1): BatchNorm2d(512, eps=1e-05, momentum=0.1, affine=True, track_running_stats=True)
  (decoder_stage_3_batch_normalization1): BatchNorm2d(256, eps=1e-05, momentum=0.1, affine=True, track_running_stats=True)
  (decoder_stage_4_batch_normalization1): BatchNorm2d(128, eps=1e-05, momentum=0.1, affine=True, track_running_stats=True)
  (decoder_stage_5_batch_normalization1): BatchNorm2d(64, eps=1e-05, momentum=0.1, affine=True, track_running_stats=True)
  (decoder_stage_1_batch_normalization2): BatchNorm2d(512, eps=1e-05, momentum=0.1, affine=True, track_running_stats=True)
  (decoder_stage_2_batch_normalization2): BatchNorm2d(512, eps=1e-05, momentum=0.1, affine=True, track_running_stats=True)
  (decoder_stage_3_batch_normalization2): BatchNorm2d(256, eps=1e-05, momentum=0.1, affine=True, track_running_stats=True)
  (decoder_stage_4_batch_normalization2): BatchNorm2d(64, eps=1e-05, momentum=0.1, affine=True, track_running_stats=True)
  (decoder_stage_5_batch_normalization2): BatchNorm2d(32, eps=1e-05, momentum=0.1, affine=True, track_running_stats=True)
  (decoder_stage_1_batch_normalization3): BatchNorm2d(512, eps=1e-05, momentum=0.1, affine=True, track_running_stats=True)
  (decoder_stage_2_batch_normalization3): BatchNorm2d(256, eps=1e-05, momentum=0.1, affine=True, track_running_stats=True)
  (decoder_stage_3_batch_normalization3): BatchNorm2d(128, eps=1e-05, momentum=0.1, affine=True, track_running_stats=True)
)
2021-12-05 01:01:39,108 root         INFO     Epoch 0
2021-12-05 01:01:41,884 root         INFO     Epoch: 0 	 iteration: 0 	 loss:3.730889320373535
2021-12-05 01:01:42,573 root         INFO     Epoch: 0 	 iteration: 1 	 loss:3.635376214981079
2021-12-05 01:01:43,231 root         INFO     Epoch: 0 	 iteration: 2 	 loss:3.6405131816864014
…
